model.pt (torch, 307527 bytes, 18 tensors)

weight_ih f4 [204, 3]
0.17885147 -0.3883977 -0.35699454 0.0018528518 -0.17718264 -0.059007306 0.21756758 0.015245987
0.09769696 -0.012980884 0.043222275 0.20281823 -0.065194376 0.10554857 -0.15462935 0.16738251
0.40588018 -0.26653165 0.37358627 0.24564543 0.45371523 0.04568572 -0.16162813 -0.17843801
-0.12089023 0.52492344 0.14190458 -0.19649158 -0.07961019 -0.14333855 0.33256397 0.03778705
-0.046780866 0.11305453 -0.15403649 -0.08140167 -0.026992744 0.12211439 -0.26591325 0.29175386
0.07923497 0.018031657 -0.03810242 -0.09602926 -0.009145275 0.09131656 0.01431006 0.19409774
0.028214134 0.13128851 0.090433605 -0.123222046 -0.02778372 -0.044526577 -0.14840062 -0.010882874
-0.16872132 0.16903034 0.25739142 0.11413127 0.014665692 -0.03201786 -0.02434825 0.06139953
0.17165855 -0.023842711 0.2850259 0.18377316 0.0597665 -0.43272397 0.096231 0.13387309
0.098828346 -0.15005419 -0.17361034 0.007936093 -0.38541198 0.052354053 -0.0291647 0.06539424
-0.19085506 0.20679305 0.07307955 0.16977668 -0.0013009722 -0.012202871 0.23055413 0.39931715
0.30718052 0.077116154 0.23557892 0.2660297 -0.067794584 0.14628649 0.26417407 0.05088417
0.10083985 -0.013927774 0.07450661 -0.108921595 0.09368962 0.18964656 0.2800157 -0.09564591
-0.033328302 0.057781603 -0.030741114 0.03203354 0.1388398 0.14476787 0.0750327 0.34669608
-0.027270887 -0.015200472 0.17594333 0.15016176 0.043594416 0.028386751 0.1761341 0.0688135
0.13329245 0.017797928 0.17381284 -0.02212021 -0.03224355 -0.114953436 -0.13656868 0.18776698
0.03518635 -0.009486473 0.043402523 0.37692395 0.12443276 -0.30257472 -0.52096033 0.08892487
-0.20759067 0.06547326 0.026905183 -0.15769228 0.11356317 0.32088903 0.20951335 0.04755999
0.101557374 0.044269167 0.1221838 0.061156 0.016885182 -0.18476203 -0.028051537 0.03235974
-0.13490108 0.14205106 -0.36459878 0.027902057 -0.072682604 -0.02016372 -0.05977356 -0.06993612
-0.14875077 -0.12731907 -0.0024966921 0.019535182 0.030108577 -0.083242446 -0.13400576 0.03784758
-0.13406466 -0.2149003 -0.60988873 0.0079893535 -0.08720294 0.07390202 -0.05007809 -0.26482984
-0.109791964 -0.7448524 0.070514165 0.058226284 0.046785187 -0.08032407 0.0008172921 0.23323256
-0.0067120427 0.1560934 -0.06407883 -0.16987413 -0.1940919 -0.034506693 -0.19806139 -0.1716953
0.1494499 0.103041604 0.24859442 0.04451854 0.03049353 0.24949336 -0.06383328 -0.09161714
0.058522332 -0.081652105 -0.033692446 -0.047285292 -0.029636161 -0.21189426 -0.30738807 -0.134124
-0.294467 -0.048032876 0.19941214 0.09112418 0.31744558 -0.08466528 -0.28693637 0.020479126
-0.17722511 -0.21399307 0.0057249335 -0.20774479 -0.004747507 -0.51445687 -0.32764903 0.25677428
0.06680918 0.07445703 -0.35661295 -0.047474086 -0.4020613 -0.5064804 -0.23858231 0.03774017
-0.22200985 -0.09581221 -0.058612756 -0.17904618 0.2877677 -0.12849899 -0.17179988 0.017679224
0.17954198 0.043004464 -0.18515684 0.04242534 0.09978869 -0.27699202 0.025413154 -0.06594524
0.038299005 -0.15934901 -0.2558098 0.1792842 -0.0005005227 0.009954579 0.010646746 -0.1510786
00000000: d724 373e 10dc c6be fdc7 b6be 64db f23a
00000010: 5e6f 35be a5b1 71bd 09ca 5e3e 4eca 793c
00000020: 5815 c83d c6ad 54bc d709 313d 95af 4f3e
00000030: a184 85bd d929 d83d 2857 1ebe 5266 2b3e
00000040: 87cf cf3e d676 88be b346 bf3e 7a8a 7b3e
00000050: 5d4d e83e f320 3b3d d881 25be 74b8 36be
00000060: 4c95 f7bd 6261 063f 6f4f 113e 1735 49be
00000070: ab0a a3bd 57c7 12be d345 aa3e 98c6 1a3d
00000080: 4b9d 3fbd 2289 e73d bebb 1dbe ebb5 a6bd
00000090: e31f ddbc 1c17 fa3d c825 88be c360 953e
000000a0: f245 a23d 20b7 933c 4811 1cbd fdaa c4bd
000000b0: 10d6 15bc 2d04 bb3d be74 6a3c 8fc1 463e
000000c0: 5421 e73c 7f70 063e 4135 b93d d75b fcbd
000000d0: af9a e3bc 8061 36bd 55f6 17be 154e 32bc
000000e0: 48c5 2cbe 4a16 2d3e cfc8 833e a8bd e93d
000000f0: 5f48 703c 2925 03bd fb75 c7bc 137e 7b3d
00000100: 42c7 2f3e ca51 c3bc eaee 913e 082f 3c3e
00000110: b8cd 743d ff8d ddbe c214 c53d 0716 093e
00000120: 8466 ca3d cea7 19be e9c6 31be 6306 023c
00000130: b854 c5be 3471 563d cfea eebc 6aed 853d
00000140: 826f 43be 8fc1 533e bbaa 953d f0d9 2d3e
00000150: 6285 aaba 8dee 47bc 6216 6c3e 4c73 cc3e
00000160: c446 9d3e 13ef 9d3d 9a3b 713e 0b35 883e
00000170: e3d7 8abd 20cc 153e d341 873e eb6b 503d
00000180: 2085 ce3d 5131 64bc ec96 983d 4912 dfbd
00000190: 58e0 bf3d b532 423e 385e 8f3e 01e2 c3bd
000001a0: 4283 08bd 67ac 6c3d cad4 fbbc 9a35 033d
000001b0: 052c 0e3e 073e 143e bfaa 993d 2682 b13e
000001c0: 3267 dfbc 670b 79bc 7d2a 343e 01c4 193e
000001d0: 0f90 323d 558b e83c 7f5c 343e 18ee 8c3d
000001e0: d17d 083e f6cc 913c fefb 313e 7135 b5bc
000001f0: d011 04bd b56c ebbd a9d8 0bbe fd45 403e
00000200: 901f 103d 276d 1bbc d8c6 313d 2dfc c03e
00000210: 9ad6 fe3d 13eb 9abe a85d 05bf 3e1e b63d
00000220: a692 54be d816 863d 4268 dc3c 167a 21be
00000230: cf93 e83d 914b a43e ab8a 563e 44ce 423d
00000240: 50fd cf3d 9653 353d 803b fa3d b77e 7a3d
00000250: cb52 8a3c 4232 3dbe 56cc e5bc a68b 043d
00000260: 8223 0abe d575 113e b1ac babe db92 e43c
00000270: 9eda 94bd 632e a5bc 1fd5 74bd ab3a 8fbd
00000280: 1f52 18be ee5f 02be 8b9f 23bb 3f08 a03c
00000290: 43a6 f63c 047b aabd ce38 09be 1006 1b3d
000002a0: 3f48 09be d30e 5cbe ab21 1cbf c7e5 023c
000002b0: 7497 b2bd f159 973d af1e 4dbd c797 87be
000002c0: 9cda e0bd a6ae 3ebf bb69 903d af7e 6e3d
000002d0: d3a1 3f3d f280 a4bd 8b3f 563a 84d4 6e3e
000002e0: b2f0 dbbb f3d6 1f3e c33b 83bd 7cf3 2dbe
000002f0: 07c0 46be e456 0dbd 9bd0 4abe e5d0 2fbe
00000300: 6509 193e 7a07 d33d 898f 7e3e 1359 363d
00000310: 91cd f93c 307b 7f3e 06bb 82bd c4a1 bbbd
00000320: 1db5 6f3d 3839 a7bd 1701 0abd 39ae 41bd
00000330: 89c7 f2bc cffa 58be f861 9dbe cd57 09be
00000340: 61c4 96be 1fbe 44bd b232 4c3e 509f ba3d
00000350: 3a88 a23e fe64 adbd 53e9 92be d7c3 a73c
00000360: 807a 35be 0021 5bbe 3998 bb3b 0dbb 54be
00000370: fa90 9bbb 72b3 03bf 9dc1 a7be eb77 833e
00000380: 40d3 883d ed7c 983d f995 b6be 3074 42bd
00000390: fbda cdbe b3a8 01bf ec4e 74be 7095 1a3d
000003a0: 8d56 63be 3139 c4bd ee13 70bd e257 37be
000003b0: 4a56 933e 3d95 03be 4fec 2fbe 05d4 903c
000003c0: dad9 373e 7325 303d c199 3dbe 31c6 2d3d
000003d0: 035e cc3d e6d1 8dbe 3f2f d03c 4c0e 87bd
000003e0: 6bdf 1c3d 632c 23be 81f9 82be 4796 373e
000003f0: 8335 03ba 8818 233c b06f 2e3c 59b4 1abe

weight_hh f4 [204, 51]
0.17122743 0.028884215 0.056729168 0.0073920568 0.029772788 0.04023198 -0.017778853 -0.064119555
0.07027518 -0.08679342 -0.040530793 -0.04373106 0.020107158 -0.0071345 -0.06939573 0.067234136
0.13544211 -0.17118508 0.11075462 -0.10855031 0.07700209 -0.101670615 -0.08080744 -0.1640129
-0.1103028 -0.044040117 0.06811145 0.04821517 0.10956408 -0.09849778 0.07038581 -0.075023346
0.019575471 0.018820308 -0.12781441 0.08256942 -0.007092462 0.100424394 -0.092318885 0.04289308
-0.12838231 0.14511082 0.09578709 0.07433277 -0.12649967 -0.18043281 0.0020529798 0.031288102
-0.01690797 0.10764828 0.0036567273 -0.119419284 0.11732177 -0.03207754 -0.06047757 0.094417915
-0.092136696 0.1537197 -0.082788065 0.010219602 0.058728646 -0.043180622 0.1230535 0.08854853
-0.07023997 -0.013939863 -0.06483502 0.05370833 0.04887393 -0.08871221 0.0460691 -0.0028556348
-0.09917137 -0.07750909 -0.12389507 -0.03828268 -0.0075489953 -0.00038403805 0.0054683485 -0.10646004
-0.086292595 -0.09245216 0.036461387 -0.0213906 -0.11118517 0.06608883 -0.119601354 0.020354131
-0.04793845 0.013058682 0.032507002 0.10666517 0.12829173 0.119802825 0.025889996 -0.101313345
-0.14739618 -0.013814774 0.103642404 -0.05680492 0.080959484 0.041960634 -0.068767935 0.09446728
0.07478922 0.05172143 0.026885001 0.026924655 -0.0031428402 0.0026595932 0.017010994 -0.12478725
0.11229805 -0.0031253158 -0.10473318 -0.08482482 -0.054831043 0.11711995 0.0973117 0.04189932
-0.012781924 0.1055868 -0.101830326 -0.023480065 0.0053402116 -0.056333445 -0.055848178 -0.085393205
0.08463375 0.06270392 0.09587209 0.08562036 0.12371884 -0.016137572 -0.07954759 -0.06284802
0.020560391 -0.10809492 -0.1525212 -0.07460036 -0.11821157 0.13883509 0.042548005 -0.13852087
0.034475055 -0.13151082 -0.14742452 0.0018415309 0.06613441 -0.11244062 -0.10802591 0.0606421
-0.13372569 -0.09852904 0.061065942 0.107923225 -0.13426872 -0.052070852 -0.03549771 -0.0017816348
-0.0062952167 0.1535682 -0.12424382 0.11331501 -0.033930644 0.02483126 -0.11996342 0.035970658
-0.01102356 -0.120762415 -0.015110991 0.1322271 -0.07426204 0.07816783 0.011931828 0.06318017
0.026900642 0.11727962 -0.14678246 -0.15527909 0.06776846 0.10331666 0.14855097 0.092336625
-0.122679256 0.13400012 0.061202176 0.033252288 0.14698711 0.13925174 -0.13091363 -0.11236453
0.016999427 -0.12896709 -0.13233279 0.023561563 -0.084428154 0.1227381 -0.02262405 -0.03172882
-0.08725404 0.078165635 -0.049792264 0.105027676 0.11634003 -0.050786655 0.08012511 -0.05004908
0.09802007 -0.09941492 -0.0068364395 -0.11083202 0.0051541836 -0.09809234 0.027427291 -0.015492153
-0.008842712 0.08832599 -0.015993847 -0.08287706 0.08874991 0.103884146 0.057772215 0.08397965
0.13577603 -0.08185769 0.032928463 0.043715205 -0.002572691 -0.101202786 -0.042459693 0.005394354
-0.008226721 0.07955814 -0.06245731 0.12398303 0.033193246 -0.090480305 -0.04233777 0.11251417
-0.07414442 -0.021584623 -0.09095538 -0.067294 0.08193249 -0.04682159 0.07083718 0.07778264
-0.0639236 -0.07104795 -0.0032444575 0.10318627 0.004475341 0.08055936 -0.096266575 0.045732886
00000000: 3e56 2f3e 979e ec3c d85c 683d 1139 f23b
00000010: 10e6 f33c 4aca 243d f5a4 91bc 1d51 83bd
00000020: 6fec 8f3d c0c0 b1bd 9e03 26bd 571f 33bd
00000030: c4b7 a43c 86c8 e9bb 591f 8ebd 0db2 893d
00000040: 56b1 0a3e 244b 2fbe 51d3 e23d a04f debd
00000050: 46b3 9d3d af38 d0bd 5f7e a5bd fff2 27be
00000060: 6fe6 e1bd 6963 34bd 047e 8b3d 457d 453d
00000070: 2263 e03d 34b9 c9bd 7026 903d d7a5 99bd
00000080: bd5c a03c 0c2d 9a3c c8e1 02be 281a a93d
00000090: e267 e8bb 4eab cd3d af11 bdbd a7b0 2f3d
000000a0: a776 03be ee97 143e 062c c43d c83b 983d
000000b0: 2189 01be 61c3 38be 498b 063b f427 003d
000000c0: 9582 8abc b476 dc3d b4a5 6f3b 1992 f4bd
000000d0: 6546 f03d bd63 03bd 54b7 77bd 2e5e c13d
000000e0: 2ab2 bcbd b268 1d3e ca8c a9bd 1e70 273c
000000f0: 738d 703d 2ade 30bd 7903 fc3d ef58 b53d
00000100: f9d9 8fbd 0664 64bc 39c8 84bd 44fd 5b3d
00000110: 0830 483d bfae b5bd f4b2 3c3d 9a25 3bbb
00000120: 5c1a cbbd 16bd 9ebd b3bc fdbd 4dce 1cbd
00000130: 905d f7bb b758 c9b9 d52f b33b b907 dabd
00000140: 2cba b0bd 8f57 bdbd 8958 153d 573b afbc
00000150: 0db5 e3bd 9559 873d 8ef1 f4bd b5bd a63c
00000160: 1c5b 44bd 15f4 553c 1026 053d 4573 da3d
00000170: e85e 033e 2f5b f53d 4217 d43c 5f7d cfbd
00000180: 06ef 16be 5d57 62bc 7842 d43d 47ac 68bd
00000190: 16ce a53d eade 2b3d 34d6 8cbd 1078 c13d
000001a0: 172b 993d dad9 533d ef3d dc3c 1891 dc3c
000001b0: 1cf8 4dbb 924c 2e3b a45a 8b3c 7590 ffbd
000001c0: 85fc e53d 19d2 4cbb 597e d6bd a3b8 adbd
000001d0: 8496 60bd 96dc ef3d 5b4b c73d 9f9e 2b3d
000001e0: 466b 51bc e43d d83d 6b8c d0bd 4459 c0bc
000001f0: f1fc ae3b e6bd 66bd 0fc1 64bd a2e2 aebd
00000200: 7654 ad3d ea6a 803d 9658 c43d ba59 af3d
00000210: 4e60 fd3d f132 84bc d9e9 a2bd 76b6 80bd
00000220: 446e a83c df60 ddbd 842e 1cbe 13c8 98bd
00000230: e818 f2bd c92a 0e3e d146 2e3d 6ad8 0dbe
00000240: b735 0d3d c6aa 06be 74f6 16be 865f f13a
00000250: 7a71 873d 4547 e6bd b03c ddbd da63 783d
00000260: 63ef 08be 98c9 c9bd 4820 7a3d da06 dd3d
00000270: bd7d 09be 3f48 55bd 0c66 11bd be85 e9ba
00000280: 1b48 cebb fb40 1d3e 8b73 febd b311 e83d
00000290: dcfa 0abd ed6a cb3c 62af f5bd f855 133d
000002a0: 299c 34bc 4952 f7bd 1794 77bc 8a66 073e
000002b0: b216 98bd 7516 a03d b77d 433c 9b64 813d
000002c0: bc5e dc3c 4c30 f03d 244e 16be 7b01 1fbe
000002d0: 31ca 8a3d af97 d33d bf1d 183e fc1a bd3d
000002e0: 433f fbbd 5437 093e 22af 7a3d 8d33 083d
000002f0: ca83 163e 0298 0e3e 390e 06be 601f e6bd
00000300: 6242 8b3c f30f 04be 3f82 07be 2e04 c13c
00000310: abe8 acbd 1d5e fb3d 1256 b9bc 14f6 01bd
00000320: 3fb2 b2bd 4e15 a03d f9f2 4bbd c018 d73d
00000330: af43 ee3d ab05 50bd a218 a43d 4400 4dbd
00000340: bfbe c83d 0d9a cbbd 3604 e0bb e6fb e2bd
00000350: 6de4 a83b a3e4 c8bd 33af e03c cdd2 7dbc
00000360: 06e1 10bc 42e4 b43d 8705 83bc 73bb a9bd
00000370: 83c2 b53d 36c1 d43d 8fa2 6c3d 86fd ab3d
00000380: df08 0b3e 01a5 a7bd ffdf 063d b70e 333d
00000390: 989a 28bb 6843 cfbd 37ea 2dbd 1fc3 b03b
000003a0: 5ec9 06bc 61ef a23d 3cd3 7fbd d1ea fd3d
000003b0: a4f5 073d bd4d b9bd 5f6a 2dbd d46d e63d
000003c0: 08d9 97bd 3cd2 b0bc d046 babd 70d1 89bd
000003d0: 39cc a73d ffc7 3fbd 1513 913d 814c 9f3d
000003e0: 60ea 82bd 9681 91bd f7a0 54bb 5353 d33d
000003f0: e2a5 923b 4efc a43d 6927 c5bd 6852 3b3d

bias_ih f4 [204]
-0.028433146 -0.06479374 0.050903715 0.07685517 -0.11355126 0.08458723 0.11054851 0.09133721
0.075568 0.06390125 -0.052690532 -0.021234721 -0.029652346 -0.07101154 0.07559182 -0.041621346
0.10372213 -0.1062967 -0.029871201 0.09116559 -0.14550585 -0.013805174 0.17722158 -0.07922622
-0.13627213 -0.07766473 -0.09101741 -0.08813788 -0.08597193 -0.0942665 -0.09213813 -0.023129333
-0.14741941 0.07424334 -0.055881407 -0.014950097 0.060226485 -0.09449275 0.076154225 -0.16150916
0.10895163 0.13411197 0.071264826 -0.14498152 -0.18703386 -0.048602786 0.054758646 0.15710396
0.13447301 -0.08940376 0.049093112 0.031893335 -0.14076072 -0.19329806 0.00075531856 0.11906647
-0.20885995 0.017858142 -0.1679652 -0.25662458 -0.0005324738 -0.14694233 -0.26567993 -0.12388813
-0.05665496 -0.09844928 0.017697185 0.064561136 -0.1756571 -0.1123438 -0.11476398 0.0011408338
-0.2241604 -0.05584052 -0.051390316 -0.0064323447 -0.15921892 -0.095862076 -0.24169798 -0.05292044
-0.22873387 -0.2238399 -0.12636706 -0.195812 -0.03754568 -0.3919924 -0.08327198 -0.11257147
-0.16958669 -0.09660835 -0.09479487 -0.1245677 -0.20575577 -0.19826889 -0.20811535 -0.26223433
-0.14250508 -0.08732068 -0.19653253 0.0457989 -0.07074704 -0.0038707627 -0.5843955 -0.15419671
0.19703606 -0.07496971 -0.14234933 -0.019770818 -0.73334366 -0.040382836 -0.8870736 0.020772591
-0.28278077 0.10398594 -0.31839043 0.32167688 0.45120004 0.14814019 0.008199836 0.3524043
0.19119701 0.060476102 0.35910937 -0.28509992 0.44897947 -0.36239636 -0.5323179 0.41510692
0.035366878 0.37478083 0.20267965 -0.065165944 0.22535911 0.1060086 -0.13944341 -0.031573866
0.25087655 -0.4453264 0.09351561 0.4583277 0.57231283 0.14977539 -0.05424614 -0.24462932
0.13924508 -0.27390715 0.14345516 0.1291798 -0.09488602 0.61744297 0.043211915 -0.33370242
0.046978187 0.1327053 -0.12402014 -0.038501054 -0.030760534 -0.10295504 -0.07186736 0.16838399
0.023130013 0.2477165 0.063984185 -0.099402755 0.04875183 -0.06353563 0.101485215 -0.22137938
-0.11542354 -0.06790806 -0.14200766 -0.07219876 0.011373286 -0.08866162 -0.034355253 0.08569639
-0.15447976 -0.033971168 -0.020398952 -0.12087437 0.1361548 0.06022694 0.111492656 -0.038260832
0.050180614 0.033764534 -0.12868367 0.070853874 0.07217814 0.056508187 0.063250214 -0.1249068
0.1078967 0.022932576 -0.10094617 0.045031067 -0.05828834 0.035753235 -0.11596843 -0.05789086
-0.020929014 -0.05313064 0.005899906 0.055690136
00000000: a1ec e8bc 95b2 84bd 6a80 503d 3e66 9d3d
00000010: 908d e8bd 123c ad3d 4267 e23d 010f bb3d
00000020: 65c3 9a3d a9de 823d 07d2 57bd 70f4 adbc
00000030: 7ae9 f2bc 806e 91bd e2cf 9a3d 257b 2abd
00000040: 456c d43d 16b2 d9bd 73b4 f4bc 06b5 ba3d
00000050: 7cff 14be 192f 62bc 9379 353e 5b41 a2bd
00000060: ec8a 0bbe b00e 9fbd 5667 babd a281 b4bd
00000070: 0d12 b0bd cb0e c1bd eab2 bcbd ba79 bdbc
00000080: 1df5 16be e40c 983d e7e3 64bd 40f1 74bc
00000090: 0cb0 763d 6a85 c1bd bff6 9b3d a862 25be
000000a0: 0822 df3d a654 093e 4bf3 913d 0976 14be
000000b0: ce85 3fbe b713 47bd 9a4a 603d dcdf 203e
000000c0: 4bb3 093e 5219 b7bd dc15 493d 96a2 023d
000000d0: 9423 10be edef 45be 9200 463a 1fd9 f33d
000000e0: 62df 55be 3d4b 923c 12ff 2bbe 4c64 83be
000000f0: b695 0bba 0d78 16be 3307 88be 0fb9 fdbd
00000100: 080f 68bd c79f c9bd b0f9 903c a138 843d
00000110: 74df 33be 8214 e6bd 6109 ebbd 0888 953a
00000120: 4e8a 65be 07b9 64bd a77e 52bd 6bc6 d2bb
00000130: 490a 23be 5653 c4bd ad7f 77be 1ac3 58bd
00000140: 3639 6abe 4936 65be 5e66 01be f182 48be
00000150: 80c9 19bd 3ab3 c8be 808a aabd df8b e6bd
00000160: 22a8 2dbe 99da c5bd d023 c2bd 5a1d ffbd
00000170: a4b1 52be 0007 4bbe 311c 55be 9443 86be
00000180: daec 11be 2fd5 b2bd d33f 49be a197 3b3d
00000190: d3e3 90bd 9fac 7dbb f29a 15bf bee5 1dbe
000001a0: d2c3 493e b889 99bd 06c4 11be 69f6 a1bc
000001b0: 69bc 3bbf 7968 25bd 4117 63bf 482b aa3c
000001c0: a4c8 90be 95f6 d43d 1204 a3be d5b2 a43e
000001d0: b103 e73e 10b2 173e 9b58 063c 566e b43e
000001e0: 26c9 433e cab5 773d 2fdd b73e 9ef8 91be
000001f0: a3e0 e53e 048c b9be fc45 08bf e588 d43e
00000200: dcdc 103d 46e3 bf3e 418b 4f3e b975 85bd
00000210: 8ac4 663e 091b d93d 41ca 0ebe 9953 01bd
00000220: e472 803e d201 e4be 1d85 bf3d eea9 ea3e
00000230: 1883 123f b85e 193e 3331 5ebd 1c80 7abe
00000240: 4396 0e3e 8f3d 8cbe e9e5 123e b647 043e
00000250: 9a53 c2bd be10 1e3f fafe 303d 0bdb aabe
00000260: 336c 403d e6e3 073e 45fe fdbd 48b3 1dbd
00000270: 84fd fbbc 18da d2bd 322f 93bd da6c 2c3e
00000280: 277b bd3c 65a9 7d3e 240a 833d ac93 cbbd
00000290: 00b0 473d f81e 82bd 7bd7 cf3d 47b1 62be
000002a0: 2d63 ecbd 6213 8bbd 756a 11be f2dc 93bd
000002b0: 0557 3a3c 3994 b5bd 18b8 0cbd 9781 af3d
000002c0: f12f 1ebe 5a25 0bbd b41b a7bc fb8c f7bd
000002d0: 2a6c 0b3e 86b0 763d 4356 e43d 64b7 1cbd
000002e0: 308a 4d3d ae4c 0a3d a7c5 03be d61b 913d
000002f0: 22d2 933d 2175 673d 5489 813d 23cf ffbd
00000300: f2f8 dc3d 19dd bb3c debc cebd 7f72 383d
00000310: c1bf 6ebd fc71 123d db80 edbd f71e 6dbd
00000320: 5373 abbc 849f 59bd 0054 c13b 571b 643d

bias_hh f4 [204]
-0.041472644 -0.032492924 -0.09666463 0.06250405 -0.09420423 0.035957552 0.13361046 0.005328866
0.01464845 0.052248824 0.035345122 0.0044769365 0.16436356 -0.037371285 0.01059735 -0.15055963
-0.109448485 0.0073035015 -0.0687301 0.039080035 -0.025493968 0.061368372 -0.07675881 0.018538527
-0.056062706 0.043554235 -0.01572533 0.061751578 0.031857118 -0.05792081 -0.012171062 -0.111805595
0.03978325 0.033454668 -0.054311167 0.12728894 -0.10166445 -0.060705915 0.17396843 -0.07813972
-0.11128631 -0.056589533 -0.010796091 0.039195914 -0.0007776928 -0.08784641 0.07324287 -0.029549679
-0.018957661 -0.08184518 -0.051366735 -0.15315385 -0.1134141 -0.22363241 -0.21086544 -0.09112052
-0.22973192 -0.073049925 -0.097513445 -0.11890686 -0.06462951 -0.23160656 -0.24388283 -0.014915573
-0.123331234 0.04943586 -0.09499396 -0.18741429 -0.09368597 -0.14941773 -0.093340926 0.021268418
-0.118785806 -0.07084745 -0.13634503 -0.13115229 -0.17327905 -0.05748602 -0.23536491 -0.2187446
-0.24520445 -0.20863982 0.0036674966 -0.27680203 0.038072303 -0.4017585 0.071372665 -0.255217
-0.21889657 -0.15489013 -0.058948 0.040097043 -0.014750406 0.019668844 -0.24400054 -0.097822756
-0.11781986 0.07220899 -0.17280865 -0.11625231 -0.14581542 -0.0063084615 -0.4777258 -0.036160477
0.060234103 0.03273212 0.13314697 -0.10535649 -0.89366573 -0.09990588 -0.8762846 0.09205414
-0.5023393 0.074926734 -0.41290227 0.24900484 0.45393002 0.26287657 -0.048667125 0.24693842
0.14558262 -0.074157335 0.338887 -0.1458975 0.43173495 -0.5420655 -0.5316325 0.58188987
-0.038147517 0.54057056 0.14650883 -0.07520475 0.10280542 -0.0216887 -0.26932073 0.10622318
0.23791209 -0.46772742 0.11591609 0.6683138 0.45872864 0.044184156 -0.12212493 -0.1030622
0.0094785625 -0.3096767 0.13417618 0.13351002 -0.10797252 0.4978336 0.054115035 -0.22060138
-0.030251827 -0.074003905 -0.026441181 -0.033782836 -0.1530299 -0.08496496 0.027417047 0.10003803
0.083826624 0.2264745 -0.16845939 0.06360451 0.08077784 0.06312821 -0.0057962905 0.032314584
-0.0012735788 -0.0051569496 -0.023483802 0.0963947 0.116628505 0.02608948 0.11287136 0.019044735
0.032158908 -0.15506734 0.061479177 -0.016368756 0.15281206 0.043904085 0.17486939 -0.049336374
0.12031269 -0.12725683 -0.02097887 -0.021845704 -0.06910274 -0.027402945 -0.10793532 -0.02156062
-0.039656255 -0.015152884 0.04118422 -0.016514488 -0.22382112 -0.1761292 -0.021104237 -0.19097005
-0.008667847 -0.041279823 -0.128014 -0.07435261
00000000: 38df 29bd 4d17 05bd 1bf8 c5bd 2002 803d
00000010: 26ee c0bd 3a48 133d 2ed1 083e c59d ae3b
00000020: 0d00 703c dd02 563d 0cc6 103d 44b3 923b
00000030: ec4e 283e a212 19bd 82a0 2d3c 4e2c 1abe
00000040: 8726 e0bd 3652 ef3b 5ec2 8cbd 6312 203d
00000050: bad8 d0bc 675d 7b3d b933 9dbd 1cde 973c
00000060: 02a2 65bd ed65 323d 68d2 80bc 39ef 7c3d
00000070: 9c7c 023d 5f3e 6dbd 2269 47bc 55fa e4bd
00000080: c3f3 223d c307 093d 6375 5ebd 0858 023e
00000090: 7335 d0bd c4a6 78bd c824 323e b807 a0bd
000000a0: 14ea e3bd 6dca 67bd 16e2 30bc e58b 203d
000000b0: 15de 4bba d2e8 b3bd 5c00 963d 2b12 f2bc
000000c0: 194d 9bbc 729e a7bd ed65 52bd 5dd4 1cbe
000000d0: a745 e8bd e5ff 64be 1ced 57be 659d babd
000000e0: d83e 6bbe 339b 95bd 21b5 c7bd 7185 f3bd
000000f0: 7a5c 84bd 452a 6dbe 6cbc 79be 7360 74bc
00000100: 1695 fcbd 427d 4a3d 318c c2bd 88e9 3fbe
00000110: 6ede bfbd f600 19be 8729 bfbd 1b3b ae3c
00000120: f945 f3bd 7818 91bd 089e 0bbe c94c 06be
00000130: 1070 31be 7676 6bbd 8003 71be 96fe 5fbe
00000140: e016 7bbe ada5 55be 625a 703b ffb8 8dbe
00000150: b4f1 1b3d 4ab3 cdbe d52b 923d cdab 82be
00000160: 6c26 60be 859b 1ebe 7573 71bd cc3c 243d
00000170: b0ab 71bc 8e20 a13c 47db 79be 4c57 c8bd
00000180: 8a4b f1bd 4fe2 933d c0f4 30be b115 eebd
00000190: a350 15be 36b7 cebb 7a98 f4be 021d 14bd
000001a0: 09b8 763d 1e12 063d ae57 083e 25c5 d7bd
000001b0: 47c7 64bf 749b ccbd 3054 60bf e286 bc3d
000001c0: 4f99 00bf 3073 993d ed67 d3be 20fb 7e3e
000001d0: 8469 e83e c297 863e 2e57 47bd 6ddd 7c3e
000001e0: 9c13 153e cddf 97bd 9982 ad3e 2766 15be
000001f0: 5d0c dd3e cec4 0abf 1119 08bf bcf6 143f
00000200: 9240 1cbd d562 0a3f 6906 163e f304 9abd
00000210: a68b d23d 80ac b1bc 68e4 89be 8a8b d93d
00000220: 3a9f 733e f879 efbe 6a65 ed3d 9d16 2b3f
00000230: 7bde ea3e 72fa 343d a31c fabd 4612 d3bd
00000240: f94b 1b3c f28d 9ebe 7b65 093e dab6 083e
00000250: b220 ddbd 0ce4 fe3e baa7 5d3d 54e5 61be
00000260: aed2 f7bc 5c8f 97bd 2d9b d8bc df5f 0abd
00000270: dfb3 1cbe 1c02 aebd b799 e03c bde0 cc3d
00000280: 4bad ab3d eee8 673e 9e80 2cbe 1543 823d
00000290: da6e a53d 5d49 813d cfee bdbb 4c5c 043d
000002a0: 37ee a6ba a1fb a8bb 1a61 c0bc 966a c53d
000002b0: edda ee3d 9bb9 d53c 1929 e73d b403 9c3c
000002c0: 0fb9 033d f9c9 1ebe 97d1 7b3d c517 86bc
000002d0: c47a 1c3e c5d4 333d f610 333e f014 4abd
000002e0: 8066 f63d 9d4f 02be e1db abbc c3f5 b2bc
000002f0: bd85 8dbd 247c e0bc 310d ddbd e69f b0bc
00000300: 996e 22bd cd43 78bc c9b0 283d 6449 87bc
00000310: 5d31 65be 375b 34be cbe2 acbc a78d 43be
00000320: 9603 0ebc 0815 29bd 1a16 03be 2e46 98bd

weight_ih f4 [204, 51]
-0.0069918814 0.038727734 -0.06382881 -0.09902615 0.0964482 0.12626153 -0.04170286 0.14155677
0.010180249 -0.12760454 -0.10766128 0.0049464996 0.020585924 0.11762062 -0.0033889282 -0.06851282
0.01997446 -0.049068447 0.0023788037 -0.09835488 0.06500124 0.092106864 0.025402322 -0.09441931
0.1413993 -0.057003256 -0.07369617 0.023321917 0.03987182 0.012819008 -0.10764217 0.05889776
0.076508954 -0.13662323 -0.0766798 0.08638472 0.043026727 -0.091013364 -0.05667134 -0.017330911
0.081162505 0.11174696 0.13811381 0.06558133 -0.09227875 0.11037159 -0.048290364 -0.080827326
0.0414432 -0.13575828 -0.045537077 -0.014681766 0.09273193 0.013161018 -0.035390023 -0.1049351
0.05844143 0.1027376 -0.082734615 0.01895332 0.018848894 0.10634819 -0.074164204 0.10717374
-0.11368427 -0.05794677 -0.0877081 -0.056426793 -0.010635363 -0.057908252 -0.03443562 -0.10494402
-0.042858556 0.02443673 -0.06803044 0.0039199153 -0.0018698019 -0.098496035 0.11178722 -0.11400932
0.10963387 0.118475735 -0.10892016 0.026605938 0.025970861 -0.06646532 0.052078847 0.1310427
0.101095766 -0.023938285 0.043995835 0.042074617 0.07242564 -0.111980945 0.03598774 -0.009411572
-0.05570029 -0.12827209 -0.04705118 -0.014482366 0.00423827 -0.038772132 0.024614027 0.09112031
-0.06257121 0.12630533 -0.10737792 -0.12237529 -0.05561258 0.051306784 0.114288285 0.059751626
-0.08676404 -0.036228135 -0.060518343 0.14284968 -0.015890965 -0.125269 0.085896604 -0.121638976
-0.13104531 -0.11411848 -0.06481744 0.11432432 -0.014171829 0.02900269 0.10972392 -0.06995269
-0.10187259 -0.012452634 -0.00462052 0.014389939 0.11790099 0.07559324 -0.036202624 0.055727284
0.14347191 0.05644399 -0.12173322 0.06989481 0.054129947 -0.08642572 0.14323786 0.09920844
0.049711008 -0.07455147 -0.0058713653 0.00023836299 0.08314791 0.027612403 -0.05541676 -0.09327311
-0.12887436 0.006504993 0.09184725 0.029107012 -0.040093858 -0.122675575 -0.025673315 -0.032713488
0.065823585 0.04199537 -0.09542131 -0.116498396 -0.007929829 0.014229074 0.097711556 -0.09306688
0.08508227 0.0019860887 -0.0916629 -0.016747983 0.10618024 -0.088383675 0.06914183 0.09067717
-0.052913785 -0.05344736 0.032026235 0.12692179 -0.082009844 -0.059835702 -0.0014005405 -0.014237083
0.020706637 -0.042755615 0.0836239 0.014454984 -0.116954036 -0.13517399 0.10641016 0.014589834
0.09986782 -0.017558424 0.0642427 -0.11623135 -0.12407155 -0.08428958 0.0005078794 0.01670711
0.03623965 0.032171242 0.010827232 -0.055013645 -0.046673186 -0.029494345 0.0116440095 -0.035322577
0.056935005 0.03643136 0.04166895 -0.003932689 -0.02564532 -0.014959439 -0.017171694 0.12242899
-0.040240105 -0.06188476 0.11141531 0.043126207 0.07843424 0.09981692 -0.14735942 -0.05553463
-0.053820375 0.043382876 -0.044065528 0.060703006 -0.05411926 -0.018037537 0.0557956 -0.1359847
0.11115019 0.079332724 0.055407938 -0.1446091 0.028542103 0.10358363 -0.041353356 0.14104664
-0.076076575 0.019880876 -0.056624226 0.120337404 0.12149973 -0.10616756 -0.07782942 0.088522725
0.02409719 0.09748129 0.12792058 0.11422615 -0.07791699 0.11091306 -0.06925249 -0.00091460306
00000000: 271c e5bb f9a0 1e3d aeb8 82bd 39ce cabd
00000010: a286 c53d b44a 013e 9ed0 2abd 42f4 103e
00000020: 0fcb 263c c4aa 02be 847d dcbd 3f16 a23b
00000030: d0a3 a83c 14e3 f03d c818 5ebb 7350 8cbd
00000040: 7ba1 a33c fffb 48bd b4e5 1b3b 496e c9bd
00000050: 5f1f 853d 86a2 bc3d 8818 d03c e95e c1bd
00000060: faca 103e 3f7c 69bd 04ee 96bd 9b0d bf3c
00000070: a250 233d d106 523c 7f73 dcbd c73e 713d
00000080: bab0 9c3d f6e6 0bbe 4d0a 9dbd 79ea b03d
00000090: cb3c 303d 3765 babd 3520 68bd 8ef9 8dbc
000000a0: 8738 a63d 97db e43d b56d 0d3e 814f 863d
000000b0: a4fc bcbd 800a e23d 1ecc 45bd cc88 a5bd
000000c0: 58c0 293d 3804 0bbe 1685 3abd ca8b 70bc
000000d0: 3dea bd3d 4fa1 573c 21f5 10bd 37e8 d6bd
000000e0: 4860 6f3d 1768 d23d c470 a9bd fe43 9b3c
000000f0: ff68 9a3c 14cd d93d 67e3 97bd e87d db3d
00000100: 4cd3 e8bd 9859 6dbd 4ea0 b3bd c81f 67bd
00000110: f23f 2ebc 3431 6dbd 5d0c 0dbd e4ec d6bd
00000120: 748c 2fbd 8a2f c83c 8b53 8bbd a272 803b
00000130: 2414 f5ba 4ab8 c9bd b3f0 e43d b87d e9bd
00000140: b987 e03d 68a3 f23d 8811 dfbd b2f4 d93c
00000150: d8c0 d43c f81e 88bd a150 553d 0f30 063e
00000160: 4c0b cf3d 391a c4bc fa34 343d 6f56 2c3d
00000170: e553 943d 4456 e5bd e167 133d fe32 1abc
00000180: fd25 64bd c259 03be bdb8 40bd 7247 6dbc
00000190: 30e1 8a3b 87cf 1ebd 5ba3 c93c 499d ba3d
000001a0: 5625 80bd 2f56 013e f4e8 dbbd e59f fabd
000001b0: 04ca 63bd 1027 523d fa0f ea3d 1fbe 743d
000001c0: 58b1 b1bd f463 14bd 15e2 77bd 3047 123e
000001d0: c52d 82bc 8446 00be 8fea af3d db1d f9bd
000001e0: be30 06be f3b6 e9bd 02bf 84bd de22 ea3d
000001f0: f630 68bc 0d97 ed3c efb6 e03d 5b43 8fbd
00000200: 94a2 d0bd 2206 4cbc bb67 97bb c7c3 6b3c
00000210: 1376 f13d a1d0 9a3d 3449 14bd 4b42 643d
00000220: 4dea 123e d031 673d 444f f9bd 0325 8f3d
00000230: 5db7 5d3d f8ff b0bd f2ac 123e cb2d cb3d
00000240: c59d 4b3d 71ae 98bd 9564 c0bb 14f1 7939
00000250: 7449 aa3d 6833 e23c affc 62bd f905 bfbd
00000260: a4f7 03be d627 d53b 691a bc3d d471 ee3c
00000270: 7539 24bd 553d fbbd d850 d2bc 94fe 05bd
00000280: 84ce 863d 5603 2c3d 3f6c c3bd b696 eebd
00000290: 1dec 01bc 1021 693c ff1c c83d d999 bebd
000002a0: 9d3f ae3d 0a29 023b c2b9 bbbd 1133 89bc
000002b0: 0775 d93d 8002 b5bd 3b9a 8d3d f4b4 b93d
000002c0: 20bc 58bd 9eeb 5abd f12d 033d c9f7 013e
000002d0: c7f4 a7bd 4816 75bd 5792 b7ba a742 69bc
000002e0: f7a0 a93c 8320 2fbd 0243 ab3d 99d4 6c3c
000002f0: 9985 efbd 0d6b 0abe 92ed d93d 330a 6f3c
00000300: 8087 cc3d afd6 8fbc ad91 833d b40a eebd
00000310: 3a19 febd 04a0 acbd 3623 053a 59dd 883c
00000320: 0770 143d fec5 033d b464 313c fd55 61bd
00000330: 622c 3fbd 209e f1bc 84c6 3e3c 68ae 10bd
00000340: ae34 693d 0d39 153d 10ad 2a3d c9dd 80bb
00000350: 2216 d2bc 6f18 75bc a7ab 8cbc 0dbc fa3d
00000360: cfd2 24bd e07a 7dbd b62d e43d 1ba5 303d
00000370: 21a2 a03d d06c cc3d 63e5 16be 4878 63bd
00000380: c172 5cbd 3eb2 313d 0e7e 34bd b7a3 783d
00000390: 28ac 5dbd 75c3 93bc ed89 643d 933f 0bbe
000003a0: b6a2 e33d 3279 a23d 6ff3 623d 6814 14be
000003b0: 21d1 e93c a723 d43d 2362 29bd 886e 103e
000003c0: 09ce 9bbd 38dd a23c ceee 67bd 7573 f63d
000003d0: dad4 f83d 616e d9bd 0865 9fbd 674b b53d
000003e0: 7867 c53c 45a4 c73d 9dfd 023e 66ef e93d
000003f0: f192 9fbd 6326 e33d 40d4 8dbd f9c1 6fba

weight_hh f4 [204, 51]
0.1023319 -0.06489091 -0.04167235 -0.12651479 -0.061671756 -0.10893777 -0.13935383 0.0464805
-0.011254661 -0.13036296 0.058726363 -0.08829446 -0.110036545 -0.10112042 -0.07691166 -0.067708224
-0.088925734 0.10927134 -0.01204222 -0.08384524 -0.07061881 -0.060889296 0.0070682494 0.12092112
0.06189858 0.079593755 -0.045618184 0.10130143 0.11481545 0.133447 0.13862453 -0.033180952
-0.041030295 0.12990835 -0.12075029 -0.045263868 -0.08056148 -0.021641178 0.093554094 0.10447782
0.13304077 0.06933005 0.052654527 0.071031354 0.12833047 0.045597266 -0.04643322 -0.0957316
-0.09574268 -0.020817522 0.049963813 -0.042134263 0.107364304 -0.14492701 -0.12882571 -0.104431726
-0.106565185 0.07976447 0.14775611 -0.14511327 0.09941148 -0.006661885 -0.01716173 -0.11386075
0.040752627 0.14325137 0.08545373 0.023602035 0.05811801 -0.08679133 0.021282991 0.063752845
-0.08572285 0.025378404 -0.018814482 0.035994362 -0.07586586 0.088018954 -0.054732233 0.025220228
-0.10053809 -0.08219376 0.1214544 0.034299895 0.12948355 0.10267261 0.110032916 0.048823185
0.11128745 -0.019964347 0.0044609606 -0.1112848 -0.001604611 -0.033361606 -0.075573996 0.062050965
-0.14128318 -0.13983555 0.04914451 -0.03213431 -0.14293349 -0.004056645 -0.03802339 0.120953165
-0.11905419 0.07563554 0.045093648 0.10947399 0.12968852 -0.13279255 -0.05394216 0.0638812
0.048929 0.11953177 0.074503176 -0.09772211 0.055284612 -0.077243395 0.07580877 0.044037797
0.024992004 0.09928557 -0.08836559 -0.13771881 -0.12520272 0.13101079 0.06311222 0.12993126
-0.06880799 0.13091835 -0.07022721 0.082633585 -0.07618318 -0.048473217 0.120178334 -0.13446867
0.12596427 -0.05952278 0.072566964 -0.006692568 0.014191764 -0.072587006 0.124924794 0.03243221
0.017066933 -0.1184926 0.13429576 0.11430827 -0.032215312 0.06527545 0.092621066 -0.043872505
0.09080683 -0.09332521 -0.011344933 0.016333703 -0.09464217 0.14648555 0.14014974 0.13084155
0.12837374 0.08097277 0.016999012 -0.044183474 -0.005879133 -0.12780407 -0.12646416 0.10391504
-0.12247409 0.063047394 -0.07431781 -0.040099904 0.007770292 -0.08344426 -0.02510922 -0.06883186
-0.07396357 -0.030638872 0.1364736 0.14419496 -0.0323457 -0.18778127 0.008408168 -0.11000537
0.032808527 -0.060350377 -0.1165727 -0.07757661 0.03806362 0.08259064 0.12143112 -0.13124289
-0.06334244 0.054546747 0.003429092 0.12347607 0.09101347 0.1147315 0.08230935 0.054736704
0.08637634 0.10206498 -0.084857784 0.06840572 -0.01744644 0.04576012 -0.050506953 -0.071921274
0.0646293 -0.013427044 -0.05308269 0.021945499 0.05600866 -0.00080452755 -0.05127084 -0.11074118
-0.02739968 0.04805562 -0.0469803 0.004452624 0.07858727 -0.10462253 -0.11222819 -0.03941468
-0.1104691 0.045774747 -0.07517753 -0.13710289 -0.11842784 -0.13700873 0.017724616 -0.05294274
0.10418546 -0.04225244 0.076600626 -0.06560956 0.00023854482 0.12019916 -0.086790815 -0.12848476
0.0299119 0.11254391 0.056214392 0.058306 -0.13826394 -0.03817246 0.07954298 -0.0071007526
0.11077242 -0.027119143 -0.12635346 -0.15211731 0.12720653 -0.07039499 0.07087956 -0.12995262
00000000: 6393 d13d 87e5 84bd a0b0 2abd 188d 01be
00000010: 869b 7cbd c41a dfbd c5b2 0ebe 5662 3e3d
00000020: 7865 38bc de7d 05be 0e8b 703d bad3 b4bd
00000030: d75a e1bd 3918 cfbd dc83 9dbd 9caa 8abd
00000040: b21e b6bd a7c9 df3d bb4c 45bc 0eb7 abbd
00000050: 98a0 90bd 0e67 79bd c69c e73b 7ea5 f73d
00000060: 5e89 7d3d 0d02 a33d 22da 3abd 2077 cf3d
00000070: 5d24 eb3d 55a6 083e 97f3 0d3e c0e8 07bd
00000080: 620f 28bd b206 053e ee4b f7bd 9b66 39bd
00000090: 6bfd a4bd d748 b1bc 4a99 bf3d 78f8 d53d
000000a0: d73b 083e eafc 8d3d 46ac 573d e378 913d
000000b0: 1069 033e 33c4 3a3d c330 3ebd ee0e c4bd
000000c0: bd14 c4bd 8289 aabc dba6 4c3d fa94 2cbd
000000d0: d1e1 db3d bf67 14be e3ea 03be 4de0 d5bd
000000e0: d93e dabd 8e5b a33d 614d 173e 9398 14be
000000f0: 3f98 cb3d f14b dabb c296 8cbc d32f e9bd
00000100: 3aec 263d 7db0 123e 5d02 af3d 0e59 c13c
00000110: 270d 6e3d a7bf b1bd ab59 ae3c da90 823d
00000120: 768f afbd 5fe6 cf3c d420 9abc d36e 133d
00000130: 8f5f 9bbd 4843 b43d e82e 60bd a79a ce3c
00000140: eae6 cdbd 3455 a8bd 16bd f83d 0c7e 0c3d
00000150: 5697 043e 0446 d23d f058 e13d d2fa 473d
00000160: adea e33d 458c a3bc 402d 923b 49e9 e3bd
00000170: d051 d2ba 2ea6 08bd 8ac6 9abd 2729 7e3d
00000180: 8aac 10be 0d31 0fbe c14b 493d 449f 03bd
00000190: 285d 12be 9bed 84bb 6abe 1bbd 4bb6 f73d
000001a0: afd2 f3bd cee6 9a3d 1eb4 383d e633 e03d
000001b0: 11cd 043e c5fa 07be 74f2 5cbd 26d4 823d
000001c0: c669 483d 13cd f43d 1f95 983d 8822 c8bd
000001d0: 1e72 623d c931 9ebd a141 9b3d fa60 343d
000001e0: 08bc cc3c 3c56 cb3d 05f9 b4bd 2906 0dbe
000001f0: 2435 00be b127 063e fb40 813d b30c 053e
00000200: 34eb 8cbd 760f 063e 49d3 8fbd cc3b a93d
00000210: ed05 9cbd da8b 46bd 0f20 f63d 28b2 09be
00000220: c7fc 003e 29ce 73bd fd9d 943d 544d dbbb
00000230: 9384 683c 7fa8 94bd 92d8 ff3d a3d7 043d
00000240: f4cf 8b3c 40ac f2bd d484 093e 741a ea3d
00000250: 34f4 03bd 23af 853d 1db0 bd3d a8b3 33bd
00000260: eef8 b93d 4a21 bfbd 19e0 39bc 42ce 853c
00000270: c1d3 c1bd 4f00 163e 6a83 0f3e 54fb 053e
00000280: 6874 033e 0dd5 a53d 8341 8b3c bbf9 34bd
00000290: bea5 c0bb 12df 02be d27f 01be 69d1 d43d
000002a0: b2d3 fabd fe1e 813d f033 98bd cc3f 24bd
000002b0: ef9d fe3b d3e4 aabd dab1 cdbc b8f7 8cbd
000002c0: 367a 97bd 5ffe fabc bcbf 0b3e d8a7 133e
000002d0: ed7c 04bd bc49 40be 6ac2 093c 7f4a e1bd
000002e0: 3c62 063d f531 77bd abbd eebd 7ce0 9ebd
000002f0: 99e8 1b3d 4825 a93d e1b0 f83d 8964 06be
00000300: aeb9 81bd 696c 5f3d 9eba 603b 06e1 fc3d
00000310: 4565 ba3d 59f8 ea3d ce91 a83d 9833 603d
00000320: 14e6 b03d 7207 d13d ebc9 adbd 4c18 8c3d
00000330: d6eb 8ebc f76e 3b3d 61e0 4ebd 764b 93bd
00000340: 5e5c 843d 1bfd 5bbc 3c6d 59bd 0cc7 b33c
00000350: 5669 653d eee6 52ba 5f01 52bd 46cc e2bd
00000360: 4b75 e0bc f8d5 443d 6a6e 40bd 51e7 913b
00000370: 5df2 a03d 5644 d6bd e5d7 e5bd 4a71 21bd
00000380: a03d e2bd 4d7e 3b3d adf6 99bd b364 0cbe
00000390: 4c8a f2bd 044c 0cbe 3733 913c 7dda 58bd
000003a0: 305f d53d e510 2dbd cae0 9c3d 4e5e 86bd
000003b0: e321 7a39 fa2a f63d 62bf b1bd 8291 03be
000003c0: cd09 f53c 6c7d e63d 1041 663d 46d2 6e3d
000003d0: 1095 0dbe ba5a 1cbd 6ee7 a23d 6ead e8bb
000003e0: a7dc e23d f728 debc cd62 01be a4c4 1bbe
000003f0: 6e42 023e 402b 90bd 4e29 913d 4d12 05be

bias_ih f4 [204]
-0.12173899 0.10904196 -0.05165514 -0.06446213 0.06034244 -0.08634024 0.038334403 -0.044741858
0.047729883 0.05111025 -0.052593105 0.014386771 0.17567639 0.042198576 -0.14502448 0.11304181
0.023611847 0.038341504 0.07242871 0.18044084 0.08419282 -0.07296073 -0.11464624 0.13404392
-0.0063056475 -0.10762433 0.12046558 -0.112945706 -0.009265075 0.17444146 0.047217898 0.037440237
0.1550171 0.08696644 0.08992221 -0.022074677 0.0029597138 0.04049771 0.2653647 0.13094085
-0.07680206 -0.097155005 0.16559063 0.08860092 -0.08388986 0.123160034 -0.006087172 -0.051372662
0.21042117 -0.02829616 -0.064622864 -0.0031470256 -0.08719552 -0.016052416 -0.15391146 -0.0067976927
-0.19544847 -0.13024865 -0.16817914 -0.15609644 -0.12283785 -0.020520201 -0.13329014 -0.12933308
0.006964949 0.042296365 -0.07083147 0.09992098 0.09036706 -0.08834248 -0.14405012 -0.0014914819
-0.17409752 -0.0017985267 -0.15556978 -0.16002078 -0.049534 0.030223483 -0.005752626 -0.26974466
-0.25781813 -0.24409291 -0.12666911 -0.0939704 -0.063210115 -0.16410013 -0.05845978 -0.15796104
-0.046332065 -0.12515163 -0.17710596 -0.0625791 -0.086321145 -0.79304373 -0.10018116 -0.14795956
-0.19033013 -0.18861428 -0.06141602 -0.123251624 -0.16075973 -0.022856383 0.047795843 -0.07819225
-0.0105368 -0.2648927 -0.15477164 0.19108258 -0.14115575 -0.004302332 -0.21508868 -0.11525224
0.29304034 0.1661082 0.013274033 0.15567754 0.17986235 -0.22841647 0.07053127 -0.012542406
0.043852363 0.17475173 0.08493251 -0.31708726 0.054206483 0.15064217 -0.20868161 0.10817904
-0.13387804 0.11006395 0.25776574 -0.29041144 -0.2888027 0.10155494 0.18098153 0.05175903
0.07638814 -0.095989175 0.046415154 0.11963868 0.19102032 -0.05466212 0.017723316 0.011707694
-0.7595845 -0.0996419 0.035466637 -0.057127744 -0.015186164 -0.003218438 -0.05999208 -0.014509177
-0.07867538 0.120198265 0.15791583 -0.12205997 0.03507811 0.13885207 0.10072251 0.093495086
0.078026 0.09003146 -0.13855153 0.041394103 -0.010871752 0.116051145 -0.014307506 -0.062091675
0.016094293 -0.03836946 -0.03132145 -0.0639393 -0.007963837 -0.061612573 0.05987203 0.03897231
0.1323762 -0.06214514 0.14434147 -0.0069505186 0.051854182 0.3322525 0.09049727 0.10897542
-0.026161179 0.09448738 -0.11947407 0.09252696 -0.039317027 0.039564267 -0.074621536 0.23374762
0.14945802 0.062679276 0.1707295 0.27436194 0.2387714 0.108884126 0.1634725 0.014932097
0.0848609 0.037301667 0.14040971 0.086604685
00000000: 4b52 f9bd 6451 df3d 5794 53bd b904 84bd
00000010: a229 773d 27d3 b0bd 8904 1d3d 3d43 37bd
00000020: 6980 433d fb58 513d de6b 57bd 7eb6 6b3c
00000030: 83e4 333e 6ad8 2c3d 4c81 14be 7782 e73d
00000040: a26d c13c fb0b 1d3d 8155 943d 7cc5 383e
00000050: 496d ac3d 6f6c 95bd a6cb eabd cf42 093e
00000060: 9b9f cebb 256a dcbd a8b6 f63d 1450 e7bd
00000070: 8bcc 17bc c8a0 323e 8e67 413d ef5a 193d
00000080: cdbc 1e3e 761b b23d 2329 b83d f4d5 b4bc
00000090: c2f7 413b ede0 253d e2dd 873e 5c15 063e
000000a0: 664a 9dbd 34f9 c6bd 9790 293e 6674 b53d
000000b0: 72ce abbd 543b fc3d e676 c7bb 246c 52bd
000000c0: a678 573e 59cd e7bc fe58 84bd 543e 4ebb
000000d0: 9193 b2bd 5b80 83bc f79a 1dbe 2ebf debb
000000e0: a523 48be e75f 05be 2737 2cbe bfd7 1fbe
000000f0: 6992 fbbd fb19 a8bc 367d 08be e46f 04be
00000100: 3a3a e43b f43e 2d3d 1710 91bd 5fa3 cc3d
00000110: 5d12 b93d e7ec b4bd e081 13be d47d c3ba
00000120: 9f46 32be 8bbc ebba af4d 1fbe 7ddc 23be
00000130: 2ae4 4abd 3d97 f73c 8680 bcbb f91b 8abe
00000140: bd00 84be 7ef3 79be 8cb5 01be 8e73 c0bd
00000150: 4e74 81bd dd09 28be 8673 6fbd 8ac0 21be
00000160: b1c6 3dbd c027 00be 445b 35be 7929 80bd
00000170: 24c9 b0bd ea04 4bbf c82b cdbd b682 17be
00000180: e7e5 42be 1a24 41be 5d8f 7bbd 596b fcbd
00000190: 339e 24be 4f3d bbbc 93c5 433d 4223 a0bd
000001a0: 8ba2 2cbc 04a0 87be 757c 1ebe 27ab 433e
000001b0: 228b 10be 94fa 8cbb 3540 5cbe 5e09 ecbd
000001c0: 6209 963e 4518 2a3e 547b 593c ef69 1f3e
000001d0: d62d 383e 02e6 69be b372 903d aa7e 4dbc
000001e0: 899e 333d 1ef2 323e 19f1 ad3d 4359 a2be
000001f0: 9e07 5e3d f141 1a3e a2b0 55be f98c dd3d
00000200: 5317 09be 3569 e13d dff9 833e cfb0 94be
00000210: f3dd 93be 09fc cf3d 3953 393e 4701 543d
00000220: 6371 9c3d f995 c4bd d11d 3e3d 2005 f53d
00000230: d59a 433e 63e5 5fbd 7d30 913c a1d1 3f3c
00000240: 2174 42bf 0d11 ccbd 7745 113d c8fe 69bd
00000250: 63cf 78bc 6eec 52bb 41ba 75bd e6b7 6dbc
00000260: 8f20 a1bd 822a f63d b0b4 213e 94fa f9bd
00000270: 10ae 0f3d 3d2f 0e3e 9a47 ce3d 5a7a bf3d
00000280: 18cc 9f3d 6a62 b83d 74e0 0dbe dd8c 293d
00000290: 6f1f 32bc 39ac ed3d 086a 6abc d753 7ebd
000002a0: 2ed8 833c 4b29 1dbd ec4a 00bd 9cf2 82bd
000002b0: c17a 02bc 775d 7cbd 603c 753d 6ea1 1f3d
000002c0: a08d 073e e78b 7ebd 40ce 133e 2dc1 e3bb
000002d0: 0d65 543d 001d aa3e a256 b93d 812e df3d
000002e0: f84f d6bc 9982 c13d d2ae f4bd c67e bd3d
000002f0: e40a 21bd 240e 223d 2dd3 98bd 895b 6f3e
00000300: 860b 193e fe5d 803d b7d3 2e3e 2b79 8c3e
00000310: 7d80 743e a4fe de3d 5665 273e c1a5 743c
00000320: 8dcb ad3d a2c9 183d 90c7 0f3e cc5d b13d

bias_hh f4 [204]
0.12338044 0.018742103 -0.031407814 -0.062088605 -0.13640805 0.06109131 0.075410984 -0.03816699
-0.09045456 -0.10999586 0.15953726 0.08263882 0.19938426 0.14034738 -0.09542208 0.19522785
-0.04733078 0.08638745 0.12577197 -0.04387036 -0.015400635 -0.057950865 0.018876014 0.007989018
0.08220749 -0.028980654 -0.090008564 -0.14636946 0.16208038 -0.019012274 0.08699864 -0.076010965
-0.09351743 -0.14176387 0.13019772 -0.019013444 -0.014946052 0.05495399 0.18072616 -0.05127655
0.08389681 -0.02597352 0.18358698 0.15751691 0.110943586 0.11175839 -0.043127947 -0.09999547
0.14533257 0.06422813 0.040115193 -0.17617364 -0.13214655 -0.14615007 -0.05421066 -0.25221616
-0.1768876 -0.16113599 -0.016716545 -0.073384956 0.04009492 -0.059513766 -0.17262809 -0.19366892
-0.084696814 -0.06300955 -0.18653098 -0.11777125 -0.1012135 -0.19344462 -0.031024184 -0.04435476
0.07276404 -0.006310464 0.034813326 0.014940139 -0.19942965 -0.06545597 -0.07129709 -0.17684127
-0.20002916 -0.17154624 -0.033862796 -0.013256448 -0.12462711 -0.17526186 -0.18990335 -0.29425108
-0.15739818 -0.27877474 -0.14733197 -0.15410393 -0.14616033 -0.87183505 -0.24926932 -0.084441714
-0.08889434 0.014524455 0.015538624 -0.20755386 -0.18589157 -0.2006336 -0.019181643 0.0819379
0.22694789 -0.20297766 -0.023886554 0.021457596 -0.25056535 -0.11453362 -0.07068926 0.019621802
0.20603399 0.09337441 0.05451617 0.007912094 -0.0070028044 -0.08860365 0.0174515 0.07307408
0.103578925 0.037355665 0.23157582 -0.14389859 0.1863718 0.18526645 -0.14260021 0.1720494
-0.029250706 -0.05431448 0.37566537 -0.043010198 -0.34012416 0.18032558 0.16779833 0.1459147
0.0038388493 -0.22836733 0.036017396 0.13262081 0.091670156 -0.17071988 0.08501502 0.02948643
-0.7200431 -0.3404889 0.035434123 0.012901575 0.026716258 -0.09830886 -0.22407886 0.16089533
-0.22875717 -0.13193282 0.07460319 -0.07964858 0.053462848 -0.021849712 -0.014958915 0.111947015
-0.037059218 -0.08301693 -0.022682918 0.08878627 0.1539189 0.10319313 -0.005736845 0.0045370418
0.17439914 -0.04402465 -0.0018207652 -0.0016378518 0.2055914 0.07554265 0.1395296 -0.012016177
-0.09444825 -0.041949663 0.08414931 -0.09499564 -0.14060178 0.108256355 0.0750507 -0.08746173
-0.022960646 0.048757557 -0.07498442 0.061260045 0.018133191 0.14941497 0.04895652 0.14374863
0.05573405 0.11686478 -0.105231054 0.1750061 0.13189098 -0.00866059 0.14858021 -0.054300092
0.07082581 0.16094868 0.15924507 0.14241584
00000000: e2ae fc3d 0a89 993c 7ba5 00bd 9f50 7ebd
00000010: 8dae 0bbe e23a 7a3d 1371 9a3d fd54 1cbd
00000020: 3e40 b9bd 8245 e1bd bc5d 233e 8b3e a93d
00000030: 632b 4c3e 39b7 0f3e a76c c3bd cfe9 473e
00000040: ecdd 41bd e7eb b03d 5eca 003e 68b1 33bd
00000050: f252 7cbc e35d 6dbd dfa1 9a3c 5fe4 023c
00000060: 675c a83d d668 edbc 6956 b8bd e0e1 15be
00000070: 66f8 253e a1bf 9bbc 582c b23d a3ab 9bbd
00000080: 1186 bfbd 8c2a 11be 8d52 053e 15c2 9bbc
00000090: 49e0 74bc 6f17 613d 4710 393e 5c07 52bd
000000a0: 17d2 ab3d 6bc6 d4bc 3afe 3b3e 1d4c 213e
000000b0: 6436 e33d 95e1 e43d eea6 30bd 6dca ccbd
000000c0: 10d2 143e 0a8a 833d d44f 243d dd66 34be
000000d0: 6d51 07be 5da8 15be ff0b 5ebd 7a22 81be
000000e0: 0622 35be d500 25be 23f1 88bc da4a 96bd
000000f0: 923a 243d b5c4 73bd 6bc5 30be 2551 46be
00000100: 8675 adbd 270b 81bd fa01 3fbe 0e32 f1bd
00000110: 0649 cfbd 5916 46be 6e26 febc 56ad 35bd
00000120: 5005 953d 02c8 cebb 6b98 0e3d 7cc7 743c
00000130: 4937 4cbe c80d 86bd 3504 92bd e115 35be
00000140: 72d4 4cbe d1a9 2fbe b7b3 0abd 9331 59bc
00000150: 803c ffbd d877 33be 0676 42be 14a8 96be
00000160: fd2c 21be 90bb 8ebe 31de 16be 6ccd 1dbe
00000170: 0eab 15be 9530 5fbf 7540 7fbe c7ef acbd
00000180: 3c0e b6bd fbf7 6d3c b695 7e3c 0089 54be
00000190: 5c5a 3ebe e572 4dbe d222 9dbc 0fcf a73d
000001a0: 0765 683e 60d9 4fbe bcad c3bc d7c7 af3c
000001b0: 1a4a 80be 9a90 eabd 88c5 90bd e7bd a03c
000001c0: 93fa 523e 153b bf3d 594c 5f3d baa1 013c
000001d0: c877 e5bb d575 b5bd 73f6 8e3c dda7 953d
000001e0: 3021 d43d 4102 193d 3622 6d3e 275a 13be
000001f0: 40d8 3e3e 7db6 3d3e ca05 12be b82d 303e
00000200: 2d9f efbc dc78 5ebd 3657 c03e 762b 30bd
00000210: c124 aebe 45a7 383e 53d3 2b3e aa6a 153e
00000220: 3495 7b3b 20d9 69be fa86 133d c0cd 073e
00000230: 90bd bb3d 31d1 2ebe 5b1c ae3d 878d f13c
00000240: bf54 38bf 9054 aebe 5f23 113d 2161 533c
00000250: 0edc da3c 2856 c9bd ee74 65be bfc1 243e
00000260: 523f 6abe 6619 07be 8fc9 983d cb1e a3bd
00000270: dcfb 5a3d 2bfe b2bc 3d16 75bc 7a44 e53d
00000280: 68cb 17bd c804 aabd 87d1 b9bc 93d5 b53d
00000290: eb9c 1d3e eb56 d33d 25fc bbbb 77ab 943b
000002a0: b095 323e 3153 34bd bea6 eeba 30ad d6ba
000002b0: 8d86 523e 1bb6 9a3d d9e0 0e3e 80df 44bc
000002c0: 166e c1bd 69d3 2bbd 7956 ac3d 138d c2bd
000002d0: eaf9 0fbe 82b5 dd3d 2eb4 993d 231f b3bd
000002e0: f717 bcbc 01b6 473d 6e91 99bd d0eb 7a3d
000002f0: 0f8c 943c 3d00 193e a286 483d d732 133e
00000300: 6349 643d cd56 ef3d 6183 d7bd cd34 333e
00000310: 6e0e 073e 26e5 0dbc 6925 183e c669 5ebd
00000320: 1f0d 913d bbcf 243e 2411 233e 75d5 113e
